…
STEPS PER EPOCH (TRAINING): 155.0 (490.25 overlapped)
STEPS PER EPOCH (VALIDATION): 41.0 (154.625 overlapped)

EVALUATING ADAM OPTIMIZER V5 MODEL ON DIFFERENT DATA SETS...

EVALUATING STANDARD DATA SET WITH A5 MODEL: 
Found 2736 images belonging to 2 classes.
Found 912 images belonging to 2 classes.
Found 910 images belonging to 2 classes.
> COMPILING MODEL: A5V2S
Model: "sequential"
_________________________________________________________________
 Layer (type)                Output Shape              Param #   
=================================================================
 conv2d (Conv2D)             (None, 99, 63, 64)        320       
                                                                 
 max_pooling2d (MaxPooling2D  (None, 49, 31, 64)       0         
 )                                                               
                                                                 
 conv2d_1 (Conv2D)           (None, 48, 30, 32)        8224      
                                                                 
 conv2d_2 (Conv2D)           (None, 47, 29, 16)        2064      
                                                                 
 flatten (Flatten)           (None, 21808)             0         
                                                                 
 dense (Dense)               (None, 512)               11166208  
                                                                 
 dense_1 (Dense)             (None, 256)               131328    
                                                                 
 dense_2 (Dense)             (None, 1)                 257       
                                                                 
=================================================================
Total params: 11,308,401
Trainable params: 11,308,401
Non-trainable params: 0
_________________________________________________________________
Epoch 1/50
155/155 [==============================] - 13s 81ms/step - loss: 0.6979 - accuracy: 0.5012 - val_loss: 0.7034 - val_accuracy: 0.3049
…
