…
STEPS PER EPOCH (TRAINING): 155.0 (490.25 overlapped)
STEPS PER EPOCH (VALIDATION): 41.0 (154.625 overlapped)

EVALUATING ADAM OPTIMIZER V4 MODEL ON DIFFERENT DATA SETS...

EVALUATING STANDARD DATA SET WITH BASELINE MODEL: 
Found 2736 images belonging to 2 classes.
Found 912 images belonging to 2 classes.
Found 910 images belonging to 2 classes.
> COMPILING MODEL: A4S
Model: "sequential"
_________________________________________________________________
 Layer (type)                Output Shape              Param #   
=================================================================
 conv2d (Conv2D)             (None, 99, 63, 64)        320       
                                                                 
 conv2d_1 (Conv2D)           (None, 98, 62, 32)        8224      
                                                                 
 conv2d_2 (Conv2D)           (None, 97, 61, 16)        2064      
                                                                 
 flatten (Flatten)           (None, 94672)             0         
                                                                 
 dense (Dense)               (None, 512)               48472576  
                                                                 
 dense_1 (Dense)             (None, 256)               131328    
                                                                 
 dense_2 (Dense)             (None, 1)                 257       
                                                                 
=================================================================
Total params: 48,614,769
Trainable params: 48,614,769
Non-trainable params: 0
_________________________________________________________________
Epoch 1/30
155/155 [==============================] - 39s 245ms/step - loss: 0.7025 - accuracy: 0.4726 - val_loss: 0.6896 - val_accuracy: 0.6951
…
