…
STEPS PER EPOCH (TRAINING): 334.0 (1004.5 overlapped)
STEPS PER EPOCH (VALIDATION): 106.0 (333.25 overlapped)

EVALUATING ADAM OPTIMIZER V3 MODEL ON DIFFERENT DATA SETS...

EVALUATING STANDARD DATA SET WITH BASELINE MODEL: 
Found 2736 images belonging to 2 classes.
Found 912 images belonging to 2 classes.
Found 910 images belonging to 2 classes.
> COMPILING MODEL: A3S
Model: "sequential"
_________________________________________________________________
 Layer (type)                Output Shape              Param #   
=================================================================
 conv2d (Conv2D)             (None, 98, 62, 128)       1280      
                                                                 
 conv2d_1 (Conv2D)           (None, 96, 60, 64)        73792     
                                                                 
 conv2d_2 (Conv2D)           (None, 94, 58, 32)        18464     
                                                                 
 flatten (Flatten)           (None, 174464)            0         
                                                                 
 dense (Dense)               (None, 512)               89326080  
                                                                 
 dense_1 (Dense)             (None, 256)               131328    
                                                                 
 dense_2 (Dense)             (None, 1)                 257       
                                                                 
=================================================================
Total params: 89,551,201
Trainable params: 89,551,201
Non-trainable params: 0
_________________________________________________________________
Epoch 1/30
334/334 [==============================] - 140s 418ms/step - loss: 0.6987 - accuracy: 0.4899 - val_loss: 0.6939 - val_accuracy: 0.4623
…
