…
STEPS PER EPOCH (TRAINING): 334.0 (1004.5 overlapped)
STEPS PER EPOCH (VALIDATION): 106.0 (333.25 overlapped)

EVALUATING ADAM OPTIMIZER V2 MODEL ON DIFFERENT DATA SETS...

EVALUATING STANDARD DATA SET WITH BASELINE MODEL: 
Found 2736 images belonging to 2 classes.
Found 912 images belonging to 2 classes.
Found 910 images belonging to 2 classes.
> COMPILING MODEL: A2S
Model: "sequential"
_________________________________________________________________
 Layer (type)                Output Shape              Param #   
=================================================================
 conv2d (Conv2D)             (None, 98, 62, 4)         40        
                                                                 
 conv2d_1 (Conv2D)           (None, 96, 60, 4)         148       
                                                                 
 conv2d_2 (Conv2D)           (None, 94, 58, 4)         148       
                                                                 
 flatten (Flatten)           (None, 21808)             0         
                                                                 
 dense (Dense)               (None, 512)               11166208  
                                                                 
 dense_1 (Dense)             (None, 256)               131328    
                                                                 
 dense_2 (Dense)             (None, 1)                 257       
                                                                 
=================================================================
Total params: 11,298,129
Trainable params: 11,298,129
Non-trainable params: 0
_________________________________________________________________
Epoch 1/30
334/334 [==============================] - 18s 53ms/step - loss: 0.7137 - accuracy: 0.4850 - val_loss: 0.6838 - val_accuracy: 0.5660
…
