EVALUATING CLASSIFIER V3 MODEL ON DIFFERENT DATA SETS...

EVALUATING STANDARD DATA SET WITH V3 MODEL: 
Found 1368 images belonging to 2 classes.
Found 456 images belonging to 2 classes.
Found 454 images belonging to 2 classes.
> COMPILING MODEL: C3S
Model: "sequential_1"
_________________________________________________________________
 Layer (type)                Output Shape              Param #   
=================================================================
 conv2d_3 (Conv2D)           (None, 99, 63, 64)        320       
                                                                 
 max_pooling2d (MaxPooling2D  (None, 49, 31, 64)       0         
 )                                                               
                                                                 
 conv2d_4 (Conv2D)           (None, 48, 30, 32)        8224      
                                                                 
 conv2d_5 (Conv2D)           (None, 47, 29, 16)        2064      
                                                                 
 flatten_1 (Flatten)         (None, 21808)             0         
                                                                 
 dense_3 (Dense)             (None, 512)               11166208  
                                                                 
 dense_4 (Dense)             (None, 256)               131328    
                                                                 
 dense_5 (Dense)             (None, 1)                 257       
                                                                 
=================================================================
Total params: 11,308,401
Trainable params: 11,308,401
Non-trainable params: 0
_________________________________________________________________
Epoch 1/50
69/69 [==============================] - 9s 127ms/step - loss: 0.7126 - accuracy: 0.5603 - val_loss: 0.7650 - val_accuracy: 0.0625
…
