EVALUATING STANDARD DATA SET WITH V2 MODEL: 
Found 1368 images belonging to 2 classes.
Found 456 images belonging to 2 classes.
Found 454 images belonging to 2 classes.
> COMPILING MODEL: C2S
Model: "sequential_9"
_________________________________________________________________
 Layer (type)                Output Shape              Param #   
=================================================================
 conv2d_18 (Conv2D)          (None, 99, 63, 64)        320       
                                                                 
 conv2d_19 (Conv2D)          (None, 98, 62, 32)        8224      
                                                                 
 conv2d_20 (Conv2D)          (None, 97, 61, 16)        2064      
                                                                 
 flatten_9 (Flatten)         (None, 94672)             0         
                                                                 
 dense_18 (Dense)            (None, 512)               48472576  
                                                                 
 dense_19 (Dense)            (None, 256)               131328    
                                                                 
 dense_20 (Dense)            (None, 1)                 257       
                                                                 
=================================================================
Total params: 48,614,769
Trainable params: 48,614,769
Non-trainable params: 0
_________________________________________________________________
Epoch 1/100
69/69 [==============================] - 16s 220ms/step - loss: 0.7085 - accuracy: 0.5890 - val_loss: 0.8523 - val_accuracy: 0.0625
…
