
EVALUATING SGD OPTIMIZER S3 ON DIFFERENT DATA SETS...

EVALUATING STANDARD DATA SET WITH S3 AT 50 EPOCHS MODEL: 
Found 2736 images belonging to 2 classes.
Found 912 images belonging to 2 classes.
Found 910 images belonging to 2 classes.
> COMPILING MODEL: S3V2S
Model: "sequential_8"
_________________________________________________________________
 Layer (type)                Output Shape              Param #   
=================================================================
 conv2d_24 (Conv2D)          (None, 99, 63, 64)        320       
                                                                 
 max_pooling2d_8 (MaxPooling  (None, 49, 31, 64)       0         
 2D)                                                             
                                                                 
 conv2d_25 (Conv2D)          (None, 48, 30, 32)        8224      
                                                                 
 conv2d_26 (Conv2D)          (None, 47, 29, 16)        2064      
                                                                 
 flatten_8 (Flatten)         (None, 21808)             0         
                                                                 
 dense_24 (Dense)            (None, 512)               11166208  
                                                                 
 dense_25 (Dense)            (None, 256)               131328    
                                                                 
 dense_26 (Dense)            (None, 1)                 257       
                                                                 
=================================================================
Total params: 11,308,401
Trainable params: 11,308,401
Non-trainable params: 0
_________________________________________________________________
Epoch 1/50
155/155 [==============================] - 13s 82ms/step - loss: 0.6929 - accuracy: 0.5129 - val_loss: 0.6975 - val_accuracy: 0.3049
…
