…
VALIDATION SAMPLES: 912 (2730 overlapped)
TEST SAMPLES: 910 (2730overlapped)
STEPS PER EPOCH (TRAINING): 155.0 (490.25 overlapped)
STEPS PER EPOCH (VALIDATION): 41.0 (154.625 overlapped)

EVALUATING M DATA SET WITH BASELINE MODEL: 
Found 47128 images belonging to 2 classes.
Found 15702 images belonging to 2 classes.
Found 15694 images belonging to 2 classes.
> COMPILING MODEL: A1M
Model: "sequential"
_________________________________________________________________
 Layer (type)                Output Shape              Param #   
=================================================================
 conv2d (Conv2D)             (None, 98, 62, 4)         40        
                                                                 
 conv2d_1 (Conv2D)           (None, 96, 60, 4)         148       
                                                                 
 flatten (Flatten)           (None, 23040)             0         
                                                                 
 dense (Dense)               (None, 256)               5898496   
                                                                 
 dense_1 (Dense)             (None, 1)                 257       
                                                                 
=================================================================
Total params: 5,898,941
Trainable params: 5,898,941
Non-trainable params: 0
_________________________________________________________________
Epoch 1/30
2929/2929 [==============================] - 394s 134ms/step - loss: 0.6932 - accuracy: 0.5100 - val_loss: 0.6874 - val_accuracy: 0.5958
…
> EXPORTED CONFUSION MATRICES FOR DATA SETS USING BASE PATH: results/models/A1/A1M
> EXPORTING PREDICTION METRICS AS: results/models/A1/A1M_Prediction_Metrics.csv

EVALUATING M DATA SET WITH A2 MODEL: 
Found 47128 images belonging to 2 classes.
Found 15702 images belonging to 2 classes.
Found 15694 images belonging to 2 classes.
> COMPILING MODEL: A2M
Model: "sequential_1"
_________________________________________________________________
 Layer (type)                Output Shape              Param #   
=================================================================
 conv2d_2 (Conv2D)           (None, 98, 62, 4)         40        
                                                                 
 conv2d_3 (Conv2D)           (None, 96, 60, 4)         148       
                                                                 
 conv2d_4 (Conv2D)           (None, 94, 58, 4)         148       
                                                                 
 flatten_1 (Flatten)         (None, 21808)             0         
                                                                 
 dense_2 (Dense)             (None, 512)               11166208  
                                                                 
 dense_3 (Dense)             (None, 256)               131328    
                                                                 
 dense_4 (Dense)             (None, 1)                 257       
                                                                 
=================================================================
Total params: 11,298,129
Trainable params: 11,298,129
Non-trainable params: 0
_________________________________________________________________
Epoch 1/30
2929/2929 [==============================] - 172s 58ms/step - loss: 0.6956 - accuracy: 0.5193 - val_loss: 0.7013 - val_accuracy: 0.4922
…
> EXPORTED CONFUSION MATRICES FOR DATA SETS USING BASE PATH: results/models/A2/A2M
> EXPORTING PREDICTION METRICS AS: results/models/A2/A2M_Prediction_Metrics.csv
ALL DONE.

EVALUATING M DATA SET WITH A3 MODEL: 
Found 47128 images belonging to 2 classes.
Found 15702 images belonging to 2 classes.
Found 15694 images belonging to 2 classes.
> COMPILING MODEL: A3M
Model: "sequential_2"
_________________________________________________________________
 Layer (type)                Output Shape              Param #   
=================================================================
 conv2d_5 (Conv2D)           (None, 98, 62, 128)       1280      
                                                                 
 conv2d_6 (Conv2D)           (None, 96, 60, 64)        73792     
                                                                 
 conv2d_7 (Conv2D)           (None, 94, 58, 32)        18464     
                                                                 
 flatten_2 (Flatten)         (None, 174464)            0         
                                                                 
 dense_5 (Dense)             (None, 512)               89326080  
                                                                 
 dense_6 (Dense)             (None, 256)               131328    
                                                                 
 dense_7 (Dense)             (None, 1)                 257       
                                                                 
=================================================================
Total params: 89,551,201
Trainable params: 89,551,201
Non-trainable params: 0
_________________________________________________________________
Epoch 1/30
2929/2929 [==============================] - 1625s 555ms/step - loss: 0.6916 - accuracy: 0.5366 - val_loss: 0.6848 - val_accuracy: 0.5175
…
> EXPORTED CONFUSION MATRICES FOR DATA SETS USING BASE PATH: results/models/A3/A3M
> EXPORTING PREDICTION METRICS AS: results/models/A3/A3M_Prediction_Metrics.csv

EVALUATING NOR DATA SET WITH A4 MODEL: 
Found 47128 images belonging to 2 classes.
Found 15702 images belonging to 2 classes.
Found 15694 images belonging to 2 classes.
> COMPILING MODEL: A4M
Model: "sequential_3"
_________________________________________________________________
 Layer (type)                Output Shape              Param #   
=================================================================
 conv2d_8 (Conv2D)           (None, 99, 63, 64)        320       
                                                                 
 conv2d_9 (Conv2D)           (None, 98, 62, 32)        8224      
                                                                 
 conv2d_10 (Conv2D)          (None, 97, 61, 16)        2064      
                                                                 
 flatten_3 (Flatten)         (None, 94672)             0         
                                                                 
 dense_8 (Dense)             (None, 512)               48472576  
                                                                 
 dense_9 (Dense)             (None, 256)               131328    
                                                                 
 dense_10 (Dense)            (None, 1)                 257       
                                                                 
=================================================================
Total params: 48,614,769
Trainable params: 48,614,769
Non-trainable params: 0
_________________________________________________________________
Epoch 1/30
2929/2929 [==============================] - 650s 222ms/step - loss: 0.6946 - accuracy: 0.5009 - val_loss: 0.6916 - val_accuracy: 0.4928
…
> EXPORTED CONFUSION MATRICES FOR DATA SETS USING BASE PATH: results/models/A4/A4M
> EXPORTING PREDICTION METRICS AS: results/models/A4/A4M_Prediction_Metrics.csv
ALL DONE.

EVALUATING M DATA SET WITH A5 MODEL: 
Found 47128 images belonging to 2 classes.
Found 15702 images belonging to 2 classes.
Found 15694 images belonging to 2 classes.
> COMPILING MODEL: A5M
Model: "sequential_4"
_________________________________________________________________
 Layer (type)                Output Shape              Param #   
=================================================================
 conv2d_11 (Conv2D)          (None, 99, 63, 64)        320       
                                                                 
 max_pooling2d (MaxPooling2D  (None, 49, 31, 64)       0         
 )                                                               
                                                                 
 conv2d_12 (Conv2D)          (None, 48, 30, 32)        8224      
                                                                 
 conv2d_13 (Conv2D)          (None, 47, 29, 16)        2064      
                                                                 
 flatten_4 (Flatten)         (None, 21808)             0         
                                                                 
 dense_11 (Dense)            (None, 512)               11166208  
                                                                 
 dense_12 (Dense)            (None, 256)               131328    
                                                                 
 dense_13 (Dense)            (None, 1)                 257       
                                                                 
=================================================================
Total params: 11,308,401
Trainable params: 11,308,401
Non-trainable params: 0
_________________________________________________________________
Epoch 1/30
2929/2929 [==============================] - 238s 81ms/step - loss: 0.6941 - accuracy: 0.4994 - val_loss: 0.6912 - val_accuracy: 0.5482
…
> EXPORTED CONFUSION MATRICES FOR DATA SETS USING BASE PATH: results/models/S1/S1M
> EXPORTING PREDICTION METRICS AS: results/models/S1/S1M_Prediction_Metrics.csv
ALL DONE.

EVALUATING M DATA SET WITH S2 MODEL: 
Found 47128 images belonging to 2 classes.
Found 15702 images belonging to 2 classes.
Found 15694 images belonging to 2 classes.
> COMPILING MODEL: S2M
Model: "sequential_6"
_________________________________________________________________
 Layer (type)                Output Shape              Param #   
=================================================================
 conv2d_16 (Conv2D)          (None, 98, 62, 64)        640       
                                                                 
 conv2d_17 (Conv2D)          (None, 96, 60, 32)        18464     
                                                                 
 flatten_6 (Flatten)         (None, 184320)            0         
                                                                 
 dense_16 (Dense)            (None, 256)               47186176  
                                                                 
 dense_17 (Dense)            (None, 1)                 257       
                                                                 
=================================================================
Total params: 47,205,537
Trainable params: 47,205,537
Non-trainable params: 0
_________________________________________________________________
Epoch 1/30
2929/2929 [==============================] - 614s 209ms/step - loss: 0.6916 - accuracy: 0.5279 - val_loss: 0.6976 - val_accuracy: 0.4922
…
